HloModule test_algebraic_simplifier_25
ENTRY main {
  constant_one = f32[] constant(1)
  constant_two = f32[] constant(2)
  constant_pi = f32[] constant(3.14159)
  constant_zero = f32[] constant(0)
  zero_array = f32[3,5] broadcast(constant_zero), dimensions={}
  one_array = f32[3,5] broadcast(constant_one), dimensions={}
  two_array = f32[3,5] broadcast(constant_two), dimensions={}
  pi_array = f32[3,5] broadcast(constant_pi), dimensions={}
  add_zero_25_0 = f32[3,5] add(two_array, zero_array)
  sub_self_25_1 = f32[3,5] subtract(one_array, one_array)
  mul_one_25_2 = f32[3,5] multiply(two_array, one_array)
  mul_zero_25_3 = f32[3,5] multiply(two_array, zero_array)
  mul_two_25_4 = f32[3,5] multiply(two_array, two_array)
  complex_combo_25_combo_0 = f32[3,5] add(mul_two_25_4, mul_two_25_4)
  complex_combo_25_combo_1 = f32[3,5] add(mul_zero_25_3, mul_one_25_2)
  complex_combo_25_combo_2 = f32[3,5] subtract(sub_self_25_1, mul_one_25_2)
  ROOT result = (f32[3,5], f32[3,5], f32[3,5], f32[3,5], f32[3,5], f32[3,5], f32[3,5], f32[3,5]) tuple(
    add_zero_25_0,
    sub_self_25_1,
    mul_one_25_2,
    mul_zero_25_3,
    mul_two_25_4,
    complex_combo_25_combo_0,
    complex_combo_25_combo_1,
    complex_combo_25_combo_2
  )
}