HloModule test_algebraic_simplifier_1
ENTRY main {
  constant_one = f32[] constant(1)
  constant_two = f32[] constant(2)
  constant_pi = f32[] constant(3.14159)
  constant_zero = f32[] constant(0)
  zero_array = f32[3,5] broadcast(constant_zero), dimensions={}
  one_array = f32[3,5] broadcast(constant_one), dimensions={}
  two_array = f32[3,5] broadcast(constant_two), dimensions={}
  pi_array = f32[3,5] broadcast(constant_pi), dimensions={}
  sub_self_1_0 = f32[3,5] subtract(two_array, two_array)
  div_one_1_1 = f32[3,5] divide(one_array, one_array)
  mul_zero_1_2 = f32[3,5] multiply(one_array, zero_array)
  mul_two_1_3 = f32[3,5] multiply(one_array, two_array)
  complex_add_mul_1_4 = f32[3,5] add(multiply(one_array, one_array), zero_array)
  power_one_1_5 = f32[3,5] power(pi_array, one_array)
  square_sqrt_1_6 = f32[3,5] power(sqrt(zero_array), two_array)
  complex_sub_add_1_7 = f32[3,5] subtract(add(pi_array, zero_array), zero_array)
  ROOT result = (f32[3,5], f32[3,5], f32[3,5], f32[3,5], f32[3,5], f32[3,5], f32[3,5], f32[3,5]) tuple(
    sub_self_1_0,
    div_one_1_1,
    mul_zero_1_2,
    mul_two_1_3,
    complex_add_mul_1_4,
    power_one_1_5,
    square_sqrt_1_6,
    complex_sub_add_1_7
  )
}