HloModule test_algebraic_simplifier_5, entry_computation_layout={()->(f32[3,5]{1,0}, f32[3,5]{1,0}, f32[3,5]{1,0}, f32[3,5]{1,0}, f32[3,5]{1,0}, /*index=5*/f32[3,5]{1,0}, f32[3,5]{1,0}, f32[3,5]{1,0}, f32[3,5]{1,0})}

ENTRY %main () -> (f32[3,5], f32[3,5], f32[3,5], f32[3,5], f32[3,5], /*index=5*/f32[3,5], f32[3,5], f32[3,5], f32[3,5]) {
  %constant_neg_one = f32[] constant(-1)
  %neg_one_array = f32[3,5]{1,0} broadcast(%constant_neg_one), dimensions={}
  %constant_zero = f32[] constant(0)
  %zero_array = f32[3,5]{1,0} broadcast(%constant_zero), dimensions={}
  %constant_one = f32[] constant(1)
  %one_array = f32[3,5]{1,0} broadcast(%constant_one), dimensions={}
  %power_one_5_0 = f32[3,5]{1,0} power(%zero_array, %one_array)
  %constant_half = f32[] constant(0.5)
  %half_array = f32[3,5]{1,0} broadcast(%constant_half), dimensions={}
  %constant_two = f32[] constant(2)
  %two_array = f32[3,5]{1,0} broadcast(%constant_two), dimensions={}
  %mul_two_5_1 = f32[3,5]{1,0} multiply(%half_array, %two_array)
  %constant_pi = f32[] constant(3.14159)
  %pi_array = f32[3,5]{1,0} broadcast(%constant_pi), dimensions={}
  %sub_zero_5_2 = f32[3,5]{1,0} subtract(%pi_array, %zero_array)
  %mul_one_5_3 = f32[3,5]{1,0} multiply(%pi_array, %one_array)
  %constant_e = f32[] constant(2.71828)
  %e_array = f32[3,5]{1,0} broadcast(%constant_e), dimensions={}
  %add_zero_5_4 = f32[3,5]{1,0} add(%e_array, %zero_array)
  %multiply.anon = f32[3,5]{1,0} multiply(%two_array, %one_array)
  %complex_pow_mul_5_5 = f32[3,5]{1,0} power(%multiply.anon, %one_array)
  %multiply.anon.1 = f32[3,5]{1,0} multiply(%e_array, %one_array)
  %complex_add_mul_5_6 = f32[3,5]{1,0} add(%multiply.anon.1, %zero_array)
  %complex_combo_5_combo_0 = f32[3,5]{1,0} multiply(%complex_add_mul_5_6, %power_one_5_0)
  %complex_combo_5_combo_1 = f32[3,5]{1,0} multiply(%power_one_5_0, %complex_combo_5_combo_0)
  ROOT %result = (f32[3,5]{1,0}, f32[3,5]{1,0}, f32[3,5]{1,0}, f32[3,5]{1,0}, f32[3,5]{1,0}, /*index=5*/f32[3,5]{1,0}, f32[3,5]{1,0}, f32[3,5]{1,0}, f32[3,5]{1,0}) tuple(%power_one_5_0, %mul_two_5_1, %sub_zero_5_2, %mul_one_5_3, %add_zero_5_4, /*index=5*/%complex_pow_mul_5_5, %complex_add_mul_5_6, %complex_combo_5_combo_0, %complex_combo_5_combo_1)
}



