HloModule test_algebraic_simplifier_1, entry_computation_layout={()->(f32[3,5]{1,0}, f32[3,5]{1,0}, f32[3,5]{1,0}, f32[3,5]{1,0}, f32[3,5]{1,0}, /*index=5*/f32[3,5]{1,0}, f32[3,5]{1,0}, f32[3,5]{1,0})}

ENTRY %main () -> (f32[3,5], f32[3,5], f32[3,5], f32[3,5], f32[3,5], /*index=5*/f32[3,5], f32[3,5], f32[3,5]) {
  %constant_e = f32[] constant(2.71828)
  %e_array = f32[3,5]{1,0} broadcast(%constant_e), dimensions={}
  %constant_one = f32[] constant(1)
  %one_array = f32[3,5]{1,0} broadcast(%constant_one), dimensions={}
  %multiply.anon = f32[3,5]{1,0} multiply(%one_array, %one_array)
  %complex_pow_mul_1_0 = f32[3,5]{1,0} power(%multiply.anon, %one_array)
  %constant_pi = f32[] constant(3.14159)
  %pi_array = f32[3,5]{1,0} broadcast(%constant_pi), dimensions={}
  %constant_neg_one = f32[] constant(-1)
  %neg_one_array = f32[3,5]{1,0} broadcast(%constant_neg_one), dimensions={}
  %add_neg_1_1 = f32[3,5]{1,0} add(%pi_array, %neg_one_array)
  %constant_half = f32[] constant(0.5)
  %half_array = f32[3,5]{1,0} broadcast(%constant_half), dimensions={}
  %add.anon = f32[3,5]{1,0} add(%one_array, %half_array)
  %complex_sub_add_1_2 = f32[3,5]{1,0} subtract(%add.anon, %half_array)
  %mul_one_1_3 = f32[3,5]{1,0} multiply(%half_array, %one_array)
  %constant_two = f32[] constant(2)
  %two_array = f32[3,5]{1,0} broadcast(%constant_two), dimensions={}
  %constant_zero = f32[] constant(0)
  %zero_array = f32[3,5]{1,0} broadcast(%constant_zero), dimensions={}
  %add.anon.1 = f32[3,5]{1,0} add(%two_array, %zero_array)
  %complex_mul_add_1_4 = f32[3,5]{1,0} multiply(%add.anon.1, %one_array)
  %div_one_1_5 = f32[3,5]{1,0} divide(%neg_one_array, %one_array)
  %mul_zero_1_6 = f32[3,5]{1,0} multiply(%neg_one_array, %zero_array)
  %complex_combo_1_combo_0 = f32[3,5]{1,0} add(%add_neg_1_1, %div_one_1_5)
  ROOT %result = (f32[3,5]{1,0}, f32[3,5]{1,0}, f32[3,5]{1,0}, f32[3,5]{1,0}, f32[3,5]{1,0}, /*index=5*/f32[3,5]{1,0}, f32[3,5]{1,0}, f32[3,5]{1,0}) tuple(%complex_pow_mul_1_0, %add_neg_1_1, %complex_sub_add_1_2, %mul_one_1_3, %complex_mul_add_1_4, /*index=5*/%div_one_1_5, %mul_zero_1_6, %complex_combo_1_combo_0)
}



