HloModule test_algebraic_simplifier_22, entry_computation_layout={()->(f32[16]{0}, f32[16]{0}, f32[16]{0}, f32[16]{0}, f32[16]{0}, /*index=5*/f32[16]{0}, f32[16]{0})}

ENTRY %main () -> (f32[16], f32[16], f32[16], f32[16], f32[16], /*index=5*/f32[16], f32[16]) {
  %constant_pi = f32[] constant(3.14159)
  %pi_array = f32[16]{0} broadcast(%constant_pi), dimensions={}
  %constant_zero = f32[] constant(0)
  %zero_array = f32[16]{0} broadcast(%constant_zero), dimensions={}
  %add_zero_22_0 = f32[16]{0} add(%pi_array, %zero_array)
  %constant_neg_one = f32[] constant(-1)
  %neg_one_array = f32[16]{0} broadcast(%constant_neg_one), dimensions={}
  %constant_one = f32[] constant(1)
  %one_array = f32[16]{0} broadcast(%constant_one), dimensions={}
  %power_one_22_1 = f32[16]{0} power(%neg_one_array, %one_array)
  %constant_e = f32[] constant(2.71828)
  %e_array = f32[16]{0} broadcast(%constant_e), dimensions={}
  %multiply.anon = f32[16]{0} multiply(%e_array, %one_array)
  %complex_add_mul_22_2 = f32[16]{0} add(%multiply.anon, %zero_array)
  %constant_two = f32[] constant(2)
  %two_array = f32[16]{0} broadcast(%constant_two), dimensions={}
  %sub_zero_22_3 = f32[16]{0} subtract(%two_array, %zero_array)
  %constant_half = f32[] constant(0.5)
  %half_array = f32[16]{0} broadcast(%constant_half), dimensions={}
  %multiply.anon.1 = f32[16]{0} multiply(%neg_one_array, %neg_one_array)
  %double_neg_22_4 = f32[16]{0} multiply(%half_array, %multiply.anon.1)
  %sqrt.anon = f32[16]{0} sqrt(%zero_array)
  %square_sqrt_22_5 = f32[16]{0} power(%sqrt.anon, %two_array)
  %sub_self_22_6 = f32[16]{0} subtract(%pi_array, %pi_array)
  ROOT %result = (f32[16]{0}, f32[16]{0}, f32[16]{0}, f32[16]{0}, f32[16]{0}, /*index=5*/f32[16]{0}, f32[16]{0}) tuple(%add_zero_22_0, %power_one_22_1, %complex_add_mul_22_2, %sub_zero_22_3, %double_neg_22_4, /*index=5*/%square_sqrt_22_5, %sub_self_22_6)
}



