HloModule test_algebraic_simplifier_22
ENTRY main {
  constant_e = f32[] constant(2.71828)
  constant_pi = f32[] constant(3.14159)
  constant_half = f32[] constant(0.5)
  constant_two = f32[] constant(2)
  constant_neg_one = f32[] constant(-1)
  constant_one = f32[] constant(1)
  constant_zero = f32[] constant(0)
  zero_array = f32[4,4] broadcast(constant_zero), dimensions={}
  one_array = f32[4,4] broadcast(constant_one), dimensions={}
  two_array = f32[4,4] broadcast(constant_two), dimensions={}
  neg_one_array = f32[4,4] broadcast(constant_neg_one), dimensions={}
  half_array = f32[4,4] broadcast(constant_half), dimensions={}
  pi_array = f32[4,4] broadcast(constant_pi), dimensions={}
  e_array = f32[4,4] broadcast(constant_e), dimensions={}
  add_zero_22_0 = f32[4,4] add(pi_array, zero_array)
  complex_add_mul_22_1 = f32[4,4] add(multiply(two_array, one_array), zero_array)
  mul_one_22_2 = f32[4,4] multiply(e_array, one_array)
  mul_zero_22_3 = f32[4,4] multiply(zero_array, zero_array)
  sub_zero_22_4 = f32[4,4] subtract(one_array, zero_array)
  complex_combo_22_combo_0 = f32[4,4] multiply(sub_zero_22_4, complex_add_mul_22_1)
  complex_combo_22_combo_1 = f32[4,4] multiply(sub_zero_22_4, complex_combo_22_combo_0)
  complex_combo_22_combo_2 = f32[4,4] add(mul_zero_22_3, sub_zero_22_4)
  ROOT result = (f32[4,4], f32[4,4], f32[4,4], f32[4,4], f32[4,4], f32[4,4], f32[4,4], f32[4,4]) tuple(
    add_zero_22_0,
    complex_add_mul_22_1,
    mul_one_22_2,
    mul_zero_22_3,
    sub_zero_22_4,
    complex_combo_22_combo_0,
    complex_combo_22_combo_1,
    complex_combo_22_combo_2
  )
}