HloModule test_algebraic_simplifier_25, entry_computation_layout={()->(f32[3,5]{1,0}, f32[3,5]{1,0}, f32[3,5]{1,0}, f32[3,5]{1,0}, f32[3,5]{1,0}, /*index=5*/f32[3,5]{1,0}, f32[3,5]{1,0})}

ENTRY %main () -> (f32[3,5], f32[3,5], f32[3,5], f32[3,5], f32[3,5], /*index=5*/f32[3,5], f32[3,5]) {
  %constant_half = f32[] constant(0.5)
  %half_array = f32[3,5]{1,0} broadcast(%constant_half), dimensions={}
  %constant_two = f32[] constant(2)
  %two_array = f32[3,5]{1,0} broadcast(%constant_two), dimensions={}
  %add.anon = f32[3,5]{1,0} add(%half_array, %two_array)
  %complex_sub_add_25_0 = f32[3,5]{1,0} subtract(%add.anon, %two_array)
  %constant_one = f32[] constant(1)
  %one_array = f32[3,5]{1,0} broadcast(%constant_one), dimensions={}
  %multiply.anon = f32[3,5]{1,0} multiply(%one_array, %one_array)
  %constant_zero = f32[] constant(0)
  %zero_array = f32[3,5]{1,0} broadcast(%constant_zero), dimensions={}
  %complex_add_mul_25_1 = f32[3,5]{1,0} add(%multiply.anon, %zero_array)
  %add_zero_25_2 = f32[3,5]{1,0} add(%one_array, %zero_array)
  %mul_one_25_3 = f32[3,5]{1,0} multiply(%zero_array, %one_array)
  %div_one_25_4 = f32[3,5]{1,0} divide(%one_array, %one_array)
  %complex_combo_25_combo_0 = f32[3,5]{1,0} multiply(%complex_sub_add_25_0, %complex_add_mul_25_1)
  %complex_combo_25_combo_1 = f32[3,5]{1,0} multiply(%mul_one_25_3, %div_one_25_4)
  ROOT %result = (f32[3,5]{1,0}, f32[3,5]{1,0}, f32[3,5]{1,0}, f32[3,5]{1,0}, f32[3,5]{1,0}, /*index=5*/f32[3,5]{1,0}, f32[3,5]{1,0}) tuple(%complex_sub_add_25_0, %complex_add_mul_25_1, %add_zero_25_2, %mul_one_25_3, %div_one_25_4, /*index=5*/%complex_combo_25_combo_0, %complex_combo_25_combo_1)
}



