HloModule test_algebraic_simplifier_17
ENTRY main {
  constant_e = f32[] constant(2.71828)
  constant_pi = f32[] constant(3.14159)
  constant_half = f32[] constant(0.5)
  constant_two = f32[] constant(2)
  constant_neg_one = f32[] constant(-1)
  constant_one = f32[] constant(1)
  constant_zero = f32[] constant(0)
  zero_array = f32[3,5] broadcast(constant_zero), dimensions={}
  one_array = f32[3,5] broadcast(constant_one), dimensions={}
  two_array = f32[3,5] broadcast(constant_two), dimensions={}
  neg_one_array = f32[3,5] broadcast(constant_neg_one), dimensions={}
  half_array = f32[3,5] broadcast(constant_half), dimensions={}
  pi_array = f32[3,5] broadcast(constant_pi), dimensions={}
  e_array = f32[3,5] broadcast(constant_e), dimensions={}
  mul_two_17_0 = f32[3,5] multiply(e_array, two_array)
  complex_mul_add_17_1 = f32[3,5] multiply(add(two_array, zero_array), one_array)
  mul_one_17_2 = f32[3,5] multiply(half_array, one_array)
  complex_pow_mul_17_3 = f32[3,5] power(multiply(zero_array, one_array), one_array)
  sub_zero_17_4 = f32[3,5] subtract(e_array, zero_array)
  sub_self_17_5 = f32[3,5] subtract(pi_array, pi_array)
  add_neg_17_6 = f32[3,5] add(two_array, neg_one_array)
  div_one_17_7 = f32[3,5] divide(two_array, one_array)
  ROOT result = (f32[3,5], f32[3,5], f32[3,5], f32[3,5], f32[3,5], f32[3,5], f32[3,5], f32[3,5]) tuple(
    mul_two_17_0,
    complex_mul_add_17_1,
    mul_one_17_2,
    complex_pow_mul_17_3,
    sub_zero_17_4,
    sub_self_17_5,
    add_neg_17_6,
    div_one_17_7
  )
}