HloModule test_algebraic_simplifier_9, entry_computation_layout={()->(f32[3,5]{1,0}, f32[3,5]{1,0}, f32[3,5]{1,0}, f32[3,5]{1,0}, f32[3,5]{1,0}, /*index=5*/f32[3,5]{1,0}, f32[3,5]{1,0})}

ENTRY %main () -> (f32[3,5], f32[3,5], f32[3,5], f32[3,5], f32[3,5], /*index=5*/f32[3,5], f32[3,5]) {
  %constant_two = f32[] constant(2)
  %two_array = f32[3,5]{1,0} broadcast(%constant_two), dimensions={}
  %constant_zero = f32[] constant(0)
  %zero_array = f32[3,5]{1,0} broadcast(%constant_zero), dimensions={}
  %add.anon = f32[3,5]{1,0} add(%two_array, %zero_array)
  %constant_one = f32[] constant(1)
  %one_array = f32[3,5]{1,0} broadcast(%constant_one), dimensions={}
  %complex_mul_add_9_0 = f32[3,5]{1,0} multiply(%add.anon, %one_array)
  %power_one_9_1 = f32[3,5]{1,0} power(%one_array, %one_array)
  %constant_pi = f32[] constant(3.14159)
  %pi_array = f32[3,5]{1,0} broadcast(%constant_pi), dimensions={}
  %mul_one_9_2 = f32[3,5]{1,0} multiply(%pi_array, %one_array)
  %add.anon.1 = f32[3,5]{1,0} add(%zero_array, %pi_array)
  %complex_sub_add_9_3 = f32[3,5]{1,0} subtract(%add.anon.1, %pi_array)
  %complex_combo_9_combo_0 = f32[3,5]{1,0} add(%complex_mul_add_9_0, %complex_mul_add_9_0)
  %complex_combo_9_combo_1 = f32[3,5]{1,0} multiply(%complex_combo_9_combo_0, %mul_one_9_2)
  %complex_combo_9_combo_2 = f32[3,5]{1,0} subtract(%power_one_9_1, %power_one_9_1)
  ROOT %result = (f32[3,5]{1,0}, f32[3,5]{1,0}, f32[3,5]{1,0}, f32[3,5]{1,0}, f32[3,5]{1,0}, /*index=5*/f32[3,5]{1,0}, f32[3,5]{1,0}) tuple(%complex_mul_add_9_0, %power_one_9_1, %mul_one_9_2, %complex_sub_add_9_3, %complex_combo_9_combo_0, /*index=5*/%complex_combo_9_combo_1, %complex_combo_9_combo_2)
}



