HloModule test_algebraic_simplifier_6
ENTRY main {
  constant_pi = f32[] constant(3.14159)
  constant_half = f32[] constant(0.5)
  constant_two = f32[] constant(2)
  constant_neg_one = f32[] constant(-1)
  constant_one = f32[] constant(1)
  constant_zero = f32[] constant(0)
  zero_array = f32[16] broadcast(constant_zero), dimensions={}
  one_array = f32[16] broadcast(constant_one), dimensions={}
  two_array = f32[16] broadcast(constant_two), dimensions={}
  neg_one_array = f32[16] broadcast(constant_neg_one), dimensions={}
  half_array = f32[16] broadcast(constant_half), dimensions={}
  pi_array = f32[16] broadcast(constant_pi), dimensions={}
  complex_add_mul_6_0 = f32[16] add(multiply(half_array, one_array), zero_array)
  square_sqrt_6_1 = f32[16] power(sqrt(zero_array), two_array)
  add_neg_6_2 = f32[16] add(neg_one_array, neg_one_array)
  add_zero_6_3 = f32[16] add(pi_array, zero_array)
  mul_zero_6_4 = f32[16] multiply(two_array, zero_array)
  complex_combo_6_combo_0 = f32[16] multiply(add_neg_6_2, square_sqrt_6_1)
  complex_combo_6_combo_1 = f32[16] add(complex_combo_6_combo_0, add_neg_6_2)
  ROOT result = (f32[16], f32[16], f32[16], f32[16], f32[16], f32[16], f32[16]) tuple(
    complex_add_mul_6_0,
    square_sqrt_6_1,
    add_neg_6_2,
    add_zero_6_3,
    mul_zero_6_4,
    complex_combo_6_combo_0,
    complex_combo_6_combo_1
  )
}