HloModule test_algebraic_simplifier_24
ENTRY main {
  constant_e = f32[] constant(2.71828)
  constant_zero = f32[] constant(0)
  constant_two = f32[] constant(2)
  constant_neg_one = f32[] constant(-1)
  constant_half = f32[] constant(0.5)
  constant_one = f32[] constant(1)
  constant_pi = f32[] constant(3.14159)
  zero_array = f32[3,5] broadcast(constant_zero), dimensions={}
  one_array = f32[3,5] broadcast(constant_one), dimensions={}
  two_array = f32[3,5] broadcast(constant_two), dimensions={}
  neg_one_array = f32[3,5] broadcast(constant_neg_one), dimensions={}
  half_array = f32[3,5] broadcast(constant_half), dimensions={}
  pi_array = f32[3,5] broadcast(constant_pi), dimensions={}
  e_array = f32[3,5] broadcast(constant_e), dimensions={}
  complex_sub_add_24_0 = f32[3,5] subtract(add(two_array, one_array), one_array)
  add_zero_24_1 = f32[3,5] add(neg_one_array, zero_array)
  double_neg_24_2 = f32[3,5] multiply(half_array, multiply(neg_one_array, neg_one_array))
  square_sqrt_24_3 = f32[3,5] power(sqrt(one_array), two_array)
  mul_two_24_4 = f32[3,5] multiply(e_array, two_array)
  sub_zero_24_5 = f32[3,5] subtract(one_array, zero_array)
  mul_one_24_6 = f32[3,5] multiply(half_array, one_array)
  complex_mul_add_24_7 = f32[3,5] multiply(add(half_array, zero_array), one_array)
  ROOT result = (f32[3,5], f32[3,5], f32[3,5], f32[3,5], f32[3,5], f32[3,5], f32[3,5], f32[3,5]) tuple(
    complex_sub_add_24_0,
    add_zero_24_1,
    double_neg_24_2,
    square_sqrt_24_3,
    mul_two_24_4,
    sub_zero_24_5,
    mul_one_24_6,
    complex_mul_add_24_7
  )
}