HloModule test_algebraic_simplifier_21
ENTRY main {
  constant_zero = f32[] constant(0)
  constant_two = f32[] constant(2)
  constant_neg_one = f32[] constant(-1)
  constant_one = f32[] constant(1)
  constant_pi = f32[] constant(3.14159)
  zero_array = f32[8,8] broadcast(constant_zero), dimensions={}
  one_array = f32[8,8] broadcast(constant_one), dimensions={}
  two_array = f32[8,8] broadcast(constant_two), dimensions={}
  neg_one_array = f32[8,8] broadcast(constant_neg_one), dimensions={}
  pi_array = f32[8,8] broadcast(constant_pi), dimensions={}
  complex_sub_add_21_0 = f32[8,8] subtract(add(neg_one_array, zero_array), zero_array)
  double_neg_21_1 = f32[8,8] multiply(pi_array, multiply(neg_one_array, neg_one_array))
  mul_one_21_2 = f32[8,8] multiply(one_array, one_array)
  complex_add_mul_21_3 = f32[8,8] add(multiply(pi_array, one_array), zero_array)
  sub_self_21_4 = f32[8,8] subtract(neg_one_array, neg_one_array)
  power_zero_21_5 = f32[8,8] power(neg_one_array, zero_array)
  complex_pow_mul_21_6 = f32[8,8] power(multiply(two_array, one_array), one_array)
  power_one_21_7 = f32[8,8] power(neg_one_array, one_array)
  complex_combo_21_combo_0 = f32[8,8] multiply(complex_pow_mul_21_6, mul_one_21_2)
  complex_combo_21_combo_1 = f32[8,8] subtract(complex_pow_mul_21_6, power_one_21_7)
  complex_combo_21_combo_2 = f32[8,8] subtract(complex_sub_add_21_0, complex_combo_21_combo_0)
  ROOT result = (f32[8,8], f32[8,8], f32[8,8], f32[8,8], f32[8,8], f32[8,8], f32[8,8], f32[8,8], f32[8,8], f32[8,8], f32[8,8]) tuple(
    complex_sub_add_21_0,
    double_neg_21_1,
    mul_one_21_2,
    complex_add_mul_21_3,
    sub_self_21_4,
    power_zero_21_5,
    complex_pow_mul_21_6,
    power_one_21_7,
    complex_combo_21_combo_0,
    complex_combo_21_combo_1,
    complex_combo_21_combo_2
  )
}