HloModule test_algebraic_simplifier_7
ENTRY main {
  constant_e = f32[] constant(2.71828)
  constant_zero = f32[] constant(0)
  constant_two = f32[] constant(2)
  constant_half = f32[] constant(0.5)
  constant_neg_one = f32[] constant(-1)
  constant_one = f32[] constant(1)
  constant_pi = f32[] constant(3.14159)
  zero_array = f32[4,4] broadcast(constant_zero), dimensions={}
  one_array = f32[4,4] broadcast(constant_one), dimensions={}
  two_array = f32[4,4] broadcast(constant_two), dimensions={}
  neg_one_array = f32[4,4] broadcast(constant_neg_one), dimensions={}
  half_array = f32[4,4] broadcast(constant_half), dimensions={}
  pi_array = f32[4,4] broadcast(constant_pi), dimensions={}
  e_array = f32[4,4] broadcast(constant_e), dimensions={}
  mul_two_7_0 = f32[4,4] multiply(pi_array, two_array)
  mul_one_7_1 = f32[4,4] multiply(one_array, one_array)
  power_zero_7_2 = f32[4,4] power(two_array, zero_array)
  complex_sub_add_7_3 = f32[4,4] subtract(add(neg_one_array, half_array), half_array)
  sub_self_7_4 = f32[4,4] subtract(one_array, one_array)
  complex_combo_7_combo_0 = f32[4,4] multiply(mul_one_7_1, complex_sub_add_7_3)
  complex_combo_7_combo_1 = f32[4,4] multiply(complex_sub_add_7_3, complex_sub_add_7_3)
  ROOT result = (f32[4,4], f32[4,4], f32[4,4], f32[4,4], f32[4,4], f32[4,4], f32[4,4]) tuple(
    mul_two_7_0,
    mul_one_7_1,
    power_zero_7_2,
    complex_sub_add_7_3,
    sub_self_7_4,
    complex_combo_7_combo_0,
    complex_combo_7_combo_1
  )
}