HloModule test_algebraic_simplifier_6
ENTRY main {
  constant_one = f32[] constant(1)
  constant_zero = f32[] constant(0)
  constant_pi = f32[] constant(3.14159)
  constant_two = f32[] constant(2)
  zero_array = f32[4,4] broadcast(constant_zero), dimensions={}
  one_array = f32[4,4] broadcast(constant_one), dimensions={}
  two_array = f32[4,4] broadcast(constant_two), dimensions={}
  pi_array = f32[4,4] broadcast(constant_pi), dimensions={}
  complex_mul_add_6_0 = f32[4,4] multiply(add(two_array, zero_array), one_array)
  complex_sub_add_6_1 = f32[4,4] subtract(add(pi_array, two_array), two_array)
  complex_add_mul_6_2 = f32[4,4] add(multiply(two_array, one_array), zero_array)
  square_sqrt_6_3 = f32[4,4] power(sqrt(one_array), two_array)
  complex_pow_mul_6_4 = f32[4,4] power(multiply(one_array, one_array), one_array)
  mul_two_6_5 = f32[4,4] multiply(two_array, two_array)
  add_zero_6_6 = f32[4,4] add(zero_array, zero_array)
  sub_zero_6_7 = f32[4,4] subtract(zero_array, zero_array)
  ROOT result = (f32[4,4], f32[4,4], f32[4,4], f32[4,4], f32[4,4], f32[4,4], f32[4,4], f32[4,4]) tuple(
    complex_mul_add_6_0,
    complex_sub_add_6_1,
    complex_add_mul_6_2,
    square_sqrt_6_3,
    complex_pow_mul_6_4,
    mul_two_6_5,
    add_zero_6_6,
    sub_zero_6_7
  )
}