HloModule test_algebraic_simplifier_18
ENTRY main {
  constant_e = f32[] constant(2.71828)
  constant_zero = f32[] constant(0)
  constant_two = f32[] constant(2)
  constant_half = f32[] constant(0.5)
  constant_neg_one = f32[] constant(-1)
  constant_one = f32[] constant(1)
  constant_pi = f32[] constant(3.14159)
  zero_array = f32[16] broadcast(constant_zero), dimensions={}
  one_array = f32[16] broadcast(constant_one), dimensions={}
  two_array = f32[16] broadcast(constant_two), dimensions={}
  neg_one_array = f32[16] broadcast(constant_neg_one), dimensions={}
  half_array = f32[16] broadcast(constant_half), dimensions={}
  pi_array = f32[16] broadcast(constant_pi), dimensions={}
  e_array = f32[16] broadcast(constant_e), dimensions={}
  mul_one_18_0 = f32[16] multiply(two_array, one_array)
  complex_add_mul_18_1 = f32[16] add(multiply(neg_one_array, one_array), zero_array)
  sub_zero_18_2 = f32[16] subtract(half_array, zero_array)
  square_sqrt_18_3 = f32[16] power(sqrt(neg_one_array), two_array)
  sub_self_18_4 = f32[16] subtract(neg_one_array, neg_one_array)
  complex_combo_18_combo_0 = f32[16] subtract(mul_one_18_0, square_sqrt_18_3)
  complex_combo_18_combo_1 = f32[16] multiply(sub_zero_18_2, complex_add_mul_18_1)
  complex_combo_18_combo_2 = f32[16] add(complex_combo_18_combo_0, square_sqrt_18_3)
  ROOT result = (f32[16], f32[16], f32[16], f32[16], f32[16], f32[16], f32[16], f32[16]) tuple(
    mul_one_18_0,
    complex_add_mul_18_1,
    sub_zero_18_2,
    square_sqrt_18_3,
    sub_self_18_4,
    complex_combo_18_combo_0,
    complex_combo_18_combo_1,
    complex_combo_18_combo_2
  )
}