HloModule test_algebraic_simplifier_17
ENTRY main {
  constant_one = f32[] constant(1)
  constant_zero = f32[] constant(0)
  constant_pi = f32[] constant(3.14159)
  constant_two = f32[] constant(2)
  zero_array = f32[3,5] broadcast(constant_zero), dimensions={}
  one_array = f32[3,5] broadcast(constant_one), dimensions={}
  two_array = f32[3,5] broadcast(constant_two), dimensions={}
  pi_array = f32[3,5] broadcast(constant_pi), dimensions={}
  mul_zero_17_0 = f32[3,5] multiply(one_array, zero_array)
  sub_self_17_1 = f32[3,5] subtract(pi_array, pi_array)
  add_zero_17_2 = f32[3,5] add(one_array, zero_array)
  mul_one_17_3 = f32[3,5] multiply(pi_array, one_array)
  sub_zero_17_4 = f32[3,5] subtract(zero_array, zero_array)
  complex_pow_mul_17_5 = f32[3,5] power(multiply(two_array, one_array), one_array)
  complex_sub_add_17_6 = f32[3,5] subtract(add(pi_array, one_array), one_array)
  div_one_17_7 = f32[3,5] divide(pi_array, one_array)
  complex_combo_17_combo_0 = f32[3,5] multiply(sub_self_17_1, sub_zero_17_4)
  complex_combo_17_combo_1 = f32[3,5] multiply(complex_pow_mul_17_5, div_one_17_7)
  ROOT result = (f32[3,5], f32[3,5], f32[3,5], f32[3,5], f32[3,5], f32[3,5], f32[3,5], f32[3,5], f32[3,5], f32[3,5]) tuple(
    mul_zero_17_0,
    sub_self_17_1,
    add_zero_17_2,
    mul_one_17_3,
    sub_zero_17_4,
    complex_pow_mul_17_5,
    complex_sub_add_17_6,
    div_one_17_7,
    complex_combo_17_combo_0,
    complex_combo_17_combo_1
  )
}