HloModule test_algebraic_simplifier_4
ENTRY main {
  constant_e = f32[] constant(2.71828)
  constant_pi = f32[] constant(3.14159)
  constant_half = f32[] constant(0.5)
  constant_two = f32[] constant(2)
  constant_neg_one = f32[] constant(-1)
  constant_one = f32[] constant(1)
  constant_zero = f32[] constant(0)
  zero_array = f32[3,5] broadcast(constant_zero), dimensions={}
  one_array = f32[3,5] broadcast(constant_one), dimensions={}
  two_array = f32[3,5] broadcast(constant_two), dimensions={}
  neg_one_array = f32[3,5] broadcast(constant_neg_one), dimensions={}
  half_array = f32[3,5] broadcast(constant_half), dimensions={}
  pi_array = f32[3,5] broadcast(constant_pi), dimensions={}
  e_array = f32[3,5] broadcast(constant_e), dimensions={}
  sub_self_4_0 = f32[3,5] subtract(two_array, two_array)
  power_zero_4_1 = f32[3,5] power(pi_array, zero_array)
  add_neg_4_2 = f32[3,5] add(one_array, neg_one_array)
  sub_zero_4_3 = f32[3,5] subtract(half_array, zero_array)
  complex_mul_add_4_4 = f32[3,5] multiply(add(half_array, zero_array), one_array)
  mul_one_4_5 = f32[3,5] multiply(zero_array, one_array)
  div_one_4_6 = f32[3,5] divide(half_array, one_array)
  ROOT result = (f32[3,5], f32[3,5], f32[3,5], f32[3,5], f32[3,5], f32[3,5], f32[3,5]) tuple(
    sub_self_4_0,
    power_zero_4_1,
    add_neg_4_2,
    sub_zero_4_3,
    complex_mul_add_4_4,
    mul_one_4_5,
    div_one_4_6
  )
}