HloModule test_algebraic_simplifier_27, entry_computation_layout={()->(f32[16]{0}, f32[16]{0}, f32[16]{0}, f32[16]{0}, f32[16]{0}, /*index=5*/f32[16]{0}, f32[16]{0}, f32[16]{0}, f32[16]{0})}

ENTRY %main () -> (f32[16], f32[16], f32[16], f32[16], f32[16], /*index=5*/f32[16], f32[16], f32[16], f32[16]) {
  %constant_zero = f32[] constant(0)
  %zero_array = f32[16]{0} broadcast(%constant_zero), dimensions={}
  %sqrt.anon = f32[16]{0} sqrt(%zero_array)
  %constant_two = f32[] constant(2)
  %two_array = f32[16]{0} broadcast(%constant_two), dimensions={}
  %mul_two_27_2 = f32[16]{0} multiply(%two_array, %two_array)
  %reshape.9 = f32[] reshape(%constant_zero)
  %reshape.10 = f32[] reshape(%constant_zero)
  %add_zero_27_0.1 = f32[] add(%reshape.9, %reshape.10)
  %broadcast.2 = f32[16]{0} broadcast(%add_zero_27_0.1), dimensions={}
  %sqrt.anon.1 = f32[] sqrt(%constant_zero)
  %reshape.11 = f32[] reshape(%sqrt.anon.1)
  %reshape.12 = f32[] reshape(%constant_two)
  %square_sqrt_27_1.1 = f32[] power(%reshape.11, %reshape.12)
  %broadcast.19 = f32[16]{0} broadcast(%square_sqrt_27_1.1), dimensions={}
  %reshape.13 = f32[] reshape(%constant_two)
  %reshape.14 = f32[] reshape(%constant_two)
  %mul_two_27_2.1 = f32[] multiply(%reshape.13, %reshape.14)
  %broadcast.22 = f32[16]{0} broadcast(%mul_two_27_2.1), dimensions={}
  %constant_e = f32[] constant(2.71828)
  %broadcast.25 = f32[16]{0} broadcast(%constant_e), dimensions={}
  %reshape.15 = f32[] reshape(%constant_e)
  %reshape.16 = f32[] reshape(%constant_zero)
  %power_zero_27_4.1 = f32[] power(%reshape.15, %reshape.16)
  %broadcast.10 = f32[16]{0} broadcast(%power_zero_27_4.1), dimensions={}
  %reshape.17 = f32[] reshape(%constant_zero)
  %reshape.18 = f32[] reshape(%constant_zero)
  %sub_self_27_5.1 = f32[] subtract(%reshape.17, %reshape.18)
  %broadcast.13 = f32[16]{0} broadcast(%sub_self_27_5.1), dimensions={}
  %constant_one = f32[] constant(1)
  %reshape.19 = f32[] reshape(%constant_one)
  %reshape.20 = f32[] reshape(%constant_zero)
  %sub_zero_27_6.1 = f32[] subtract(%reshape.19, %reshape.20)
  %broadcast.16 = f32[16]{0} broadcast(%sub_zero_27_6.1), dimensions={}
  %broadcast.32 = f32[16]{0} broadcast(%constant_one), dimensions={}
  %reshape.21 = f32[] reshape(%constant_one)
  %reshape.22 = f32[] reshape(%constant_e)
  %complex_combo_27_combo_0.1 = f32[] subtract(%reshape.21, %reshape.22)
  %broadcast.35 = f32[16]{0} broadcast(%complex_combo_27_combo_0.1), dimensions={}
  ROOT %result = (f32[16]{0}, f32[16]{0}, f32[16]{0}, f32[16]{0}, f32[16]{0}, /*index=5*/f32[16]{0}, f32[16]{0}, f32[16]{0}, f32[16]{0}) tuple(%broadcast.2, %broadcast.19, %broadcast.22, %broadcast.25, %broadcast.10, /*index=5*/%broadcast.13, %broadcast.16, %broadcast.32, %broadcast.35)
  %broadcast.4 = f32[16]{0} broadcast(%sqrt.anon.1), dimensions={}
  %multiply = f32[16]{0} multiply(%broadcast.4, %broadcast.4)
  %constant = f32[] constant(1)
  %broadcast.29 = f32[16]{0} broadcast(%constant), dimensions={}
  %negate = f32[] negate(%constant_e)
  %broadcast.3 = f32[16]{0} broadcast(%negate), dimensions={}
  %add = f32[16]{0} add(%broadcast.32, %broadcast.3)
}



