HloModule test_algebraic_simplifier_13, entry_computation_layout={()->(f32[2,3,4]{2,1,0}, f32[2,3,4]{2,1,0}, f32[2,3,4]{2,1,0}, f32[2,3,4]{2,1,0}, f32[2,3,4]{2,1,0}, /*index=5*/f32[2,3,4]{2,1,0}, f32[2,3,4]{2,1,0})}

ENTRY %main () -> (f32[2,3,4], f32[2,3,4], f32[2,3,4], f32[2,3,4], f32[2,3,4], /*index=5*/f32[2,3,4], f32[2,3,4]) {
  %constant_e = f32[] constant(2.71828)
  %broadcast.2 = f32[2,3,4]{2,1,0} broadcast(%constant_e), dimensions={}
  %constant_one = f32[] constant(1)
  %broadcast.16 = f32[2,3,4]{2,1,0} broadcast(%constant_one), dimensions={}
  %constant.1 = f32[] constant(1)
  %broadcast.10 = f32[2,3,4]{2,1,0} broadcast(%constant.1), dimensions={}
  %broadcast.26 = f32[2,3,4]{2,1,0} broadcast(%constant_e), dimensions={}
  %constant_two = f32[] constant(2)
  %broadcast.19 = f32[2,3,4]{2,1,0} broadcast(%constant_two), dimensions={}
  %constant.2 = f32[] constant(0)
  %broadcast.7 = f32[2,3,4]{2,1,0} broadcast(%constant.2), dimensions={}
  %broadcast.30 = f32[2,3,4]{2,1,0} broadcast(%constant_two), dimensions={}
  ROOT %result = (f32[2,3,4]{2,1,0}, f32[2,3,4]{2,1,0}, f32[2,3,4]{2,1,0}, f32[2,3,4]{2,1,0}, f32[2,3,4]{2,1,0}, /*index=5*/f32[2,3,4]{2,1,0}, f32[2,3,4]{2,1,0}) tuple(%broadcast.2, %broadcast.16, %broadcast.10, %broadcast.26, %broadcast.19, /*index=5*/%broadcast.7, %broadcast.30)
}



